models/genesis_multiclass.pth (torch, 240836 bytes, 8 tensors)

conv_net.0.weight f4 [32, 4, 12]
000000 12 3d 7c bd 96 64 d9 bd 1e e0 9e 3d 23 27 0f 3e
       -0.06158168 -0.10614888 0.07757591 0.13979773
000010 17 ed 72 3d 2b fd ea bd d2 3f 22 bd 8a e0 34 3c
       0.059308138 -0.11474069 -0.039611645 0.011039862
000020 c8 0b 44 3e 53 02 a3 3d 31 2e 80 be be fe e3 bd
       0.19145119 0.07959428 -0.2503524 -0.111325726
000030 8a 2a 8b 3d c3 79 58 be 30 ff 72 be 54 c7 de ba
       0.06795223 -0.21140198 -0.23730159 -0.001699666
000040 63 e4 81 bd 38 e6 12 3d ca c4 b2 bd 1e 6e b1 bd
       -0.063423894 0.035864085 -0.08728941 -0.08663581
000050 25 10 92 be a4 56 09 be 60 b1 dd 3d 33 1c 9d bc
       -0.28527942 -0.13411957 0.10824847 -0.019178485
000060 88 25 7e 3c e9 25 d0 3d 12 15 10 3e d1 ed e8 3d
       0.015511878 0.10163481 0.14070538 0.11373485
000070 f6 d0 df bd 86 93 39 3d aa 3a 17 bd 79 f5 6a 3d
       -0.10928528 0.045306705 -0.03692118 0.057363007
000080 1e 2b 11 3e fb f4 fe 3d 23 f1 54 3d ca d6 b8 3d
       0.14176604 0.1244907 0.05198778 0.09025343
000090 86 8b d1 3b bc 52 e0 bd 3d b4 ef bd 84 66 3b be
       0.0063948063 -0.1095328 -0.117042996 -0.18300825
0000a0 9e e7 ba bc 1c 1d a7 3d cd dd ed 3c 84 a6 1b be
       -0.022815522 0.08159849 0.029036427 -0.1520024
0000b0 68 a0 8a be e6 d3 62 be b3 86 66 be 4a d4 e4 bb
       -0.27075505 -0.22151145 -0.22512321 -0.0069833146
0000c0 d7 ee a8 bc ed 05 e6 3d f4 9e 91 3d 80 8a 17 3d
       -0.0206217 0.11231599 0.07110396 0.03699732
0000d0 18 87 2a 3e ed bb 2b 3e f7 b5 a1 3c 43 2e 47 3d
       0.16653097 0.16770907 0.019740088 0.048628103
0000e0 ce 1d f3 bd 2e 3d dd 3c e5 8b 14 3e 1e f1 5b 39
       -0.11870919 0.027006712 0.1450649 0.0002097529
0000f0 de c8 14 3d 19 d0 9b bd 06 43 df 3d dc 36 fb bd
       0.036324374 -0.07608051 0.109014556 -0.12266323
000100 c2 86 ea bc 2d b2 d5 3c a7 fe d4 3d dc 0e a4 be
       -0.02862871 0.026085937 0.104001336 -0.32042587
000110 00 c7 11 be 68 1a 9c bd 18 be 0a 3e 2e 61 67 3c
       -0.14236069 -0.07622224 0.13549078 0.014122291
000120 99 d7 30 bd 1f 51 59 be 0d cb 0b be 30 26 ae be
       -0.04317436 -0.21222351 -0.13651676 -0.3401351
000130 15 12 05 bd 5c 0f d4 3c 5d a9 a0 3c 1a f8 b1 be
       -0.032487947 0.02588623 0.019612009 -0.347596
000140 63 3f d2 bd 47 43 79 be ab da 2e bd 81 4a b4 3c
       -0.10265996 -0.2434207 -0.042689007 0.022008182
000150 d7 e8 8f be 85 98 25 be 38 1f 01 be b7 5c 22 3a
       -0.2810733 -0.16171463 -0.12609565 0.0006193625
000160 81 24 1a be 29 76 83 bd 8e 2f 12 be 7a 88 f3 bc
       -0.15052988 -0.06419022 -0.14275953 -0.029728163
000170 39 5f a7 3d ca e0 ef 3c 48 f3 ea bd 7c 1c ff bd
       0.08172459 0.029281992 -0.114721835 -0.12456605
000180 32 f6 ad bd ef 85 9e 3d 6b cd 3a 3d 14 18 97 3d
       -0.08494224 0.077403896 0.045606058 0.073776394
000190 f8 80 e3 bd c2 ac 17 3e 30 e3 0b be a3 0c e4 bd
       -0.11108583 0.14811996 -0.13660884 -0.11135223
0001a0 98 bf 7b be f2 f6 27 be 7c 83 4e be 6d 8d 56 bd
       -0.24584806 -0.16402796 -0.20167345 -0.052380968
0001b0 ef 07 00 3e aa eb 85 be fb a2 31 3d bf c6 df 3d
       0.12503026 -0.2615636 0.04336832 0.1092658
0001c0 dd 39 9d bd c2 bc 20 be 3e 96 a3 3c 5a a3 ad bd
       -0.07677052 -0.15697005 0.019969102 -0.084784225
0001d0 f9 ee 28 be 1e 55 87 3d 93 03 3d be 14 0a e4 3d
       -0.16497411 0.06608032 -0.18458395 0.11134735
0001e0 a7 61 7c bd bf 9f a6 3d e7 30 34 be d6 73 a9 3c
       -0.061616566 0.08135938 -0.1759678 0.020685118
0001f0 17 78 51 3d 90 85 a6 bc a2 57 58 be ba 93 09 be
       0.051139917 -0.02032736 -0.2112718 -0.1343526
000200 f1 9b 65 3d 58 78 8e 3c 74 ce 14 be ec da 1a be
       0.05605692 0.017391369 -0.1453188 -0.15122575
000210 f8 91 4e be 8f 33 88 3c f9 8f f2 3d 93 c6 0f be
       -0.2017287 0.016626148 0.11843867 -0.14040594
000220 45 d4 33 be 87 fe 46 bd 11 76 c3 bc 76 bb b9 3d
       -0.17561443 -0.04858258 -0.02386001 0.090689585
000230 fb ae ac 3d b3 29 cb 3c 0e 36 c6 3c 4f 02 7e be
       0.084318124 0.024800157 0.024195697 -0.24805568
000240 83 fb ea bd 86 66 67 3c fe c1 00 3b 77 c4 a0 3d
       -0.11473753 0.014123565 0.0019646878 0.07849973
000250 61 cc 25 bd 45 6e e9 bb aa 60 60 3e e3 0a 7c be
       -0.040478114 -0.007123741 0.21911874 -0.24613528
000260 d1 88 82 3c 57 83 18 3d 1c fd cb bd 2d 7d ea 3b
       0.01593438 0.03723463 -0.09960386 0.0071560354
000270 7b 67 ee bd 48 bb b1 bd e0 1f 77 bd 62 f0 94 be
       -0.11640831 -0.08678299 -0.060333133 -0.29089648
000280 7d 03 0a 3e 58 ef b9 bc 8b 59 d1 bd ed 59 34 be
       0.13477893 -0.022697136 -0.10222157 -0.17612429
000290 58 31 ea 3d e9 e4 82 3c b2 a6 82 be c3 39 89 be
       0.11435193 0.015978293 -0.25517803 -0.2680188
0002a0 6b 59 de 3d 62 f8 02 3e d9 3a 09 3e a5 c9 7a 3d
       0.10856899 0.12790063 0.13401355 0.06122746
0002b0 b9 34 0f bd 39 39 c4 bd 74 4d 3d be fe 39 9d 3d
       -0.03496239 -0.09581227 -0.18486577 0.07677077
0002c0 57 ba 60 3c eb 57 f2 bd 5a e8 d0 bc 5e 92 3e 3e
       0.013716302 -0.11833175 -0.025501419 0.18610522
0002d0 f4 52 1c be 68 02 12 3e e9 97 3d be bf c6 8c bd
       -0.15266019 0.1425873 -0.1851498 -0.06873845
0002e0 2e 2c a1 bd 92 fe b4 bd 61 e3 5a bd 01 91 a1 3d
       -0.07869755 -0.08837618 -0.0534395 0.078889854
0002f0 9a 28 71 3d 85 e1 5e bd a6 c8 74 be b0 ee 37 be
       0.05887661 -0.05441429 -0.23904666 -0.17962146
000300 6b d4 0e bc e3 ab 1b be cc a3 33 bd 9b 65 a0 bd
       -0.008717637 -0.15202288 -0.04385738 -0.0783188
000310 b3 48 87 3d 47 5e 85 3c ef a7 4e be f9 21 00 be
       0.06605663 0.016280307 -0.20181249 -0.1251296
000320 20 91 a4 3d 31 d6 18 be a6 31 9f bd 79 b8 00 be
       0.08035493 -0.14925458 -0.077731416 -0.1257037
000330 81 d1 be 3d b5 e4 37 be db 76 b5 3c b4 93 fe 3d
       0.093173034 -0.17958339 0.022151401 0.12430516
000340 39 d4 97 bd a7 32 0b 3e 54 13 63 3d e6 6b 2b bc
       -0.07413525 0.13593541 0.055438355 -0.010462737
000350 a1 5c d4 bd b0 b6 57 be e1 d2 81 bd 2a 8f 5a 3d
       -0.1036923 -0.21065784 -0.0633905 0.05335919
000360 84 53 dd bb 1f 29 8b 3d 01 12 31 3e 20 30 bb 3c
       -0.0067543406 0.067949526 0.17292024 0.022850096
000370 fa ec 11 3d 89 f9 03 3e fd 95 28 3d a8 4c b6 3c
       0.03562639 0.12888159 0.041158665 0.02225335
000380 12 fc 93 bd 39 b5 06 bd 26 01 6d 3d a3 fd 2e be
       -0.07225813 -0.03288767 0.057862423 -0.17088942
000390 b0 19 3e be 59 5f b3 bd 9d 90 82 be a7 88 ce 3c
       -0.18564487 -0.087584205 -0.25500956 0.025211645
0003a0 41 80 2b be f8 f4 f7 bd 89 fc 68 bd b4 8f ff bd
       -0.16748144 -0.12107271 -0.05688146 -0.12478581
0003b0 3c 49 3f bd 1d fe 36 3d d9 1f 13 be cd 09 80 3d
       -0.0467007 0.044675935 -0.14367618 0.06251869
0003c0 b2 eb 36 bd ac b8 02 3e 14 d0 e1 bd 8f 64 fc bd
       -0.04465837 0.12765759 -0.11026016 -0.123238675
0003d0 6a dc be bd 6a 34 b8 3d fa 9c 59 3e e5 5b c4 3d
       -0.093193844 0.08994372 0.21251288 0.0958784
0003e0 83 fc ef 3c be ae 68 3d ba d8 9e 3d 76 c0 63 be
       0.029295212 0.056807272 0.07756181 -0.22241387
0003f0 48 5b b1 3d 45 6f 21 be a3 90 2b 3c ef 87 a9 bd
       0.08659989 -0.15765102 0.010471496 -0.082778804

conv_net.0.bias f4 [32]
000000 f7 89 33 be e2 54 fe bc a7 f0 3e bc cf 00 aa bd
       -0.17533098 -0.031046335 -0.011654056 -0.083009355
000010 28 e5 83 3d 95 e3 39 be e9 f3 cd bd 33 95 08 be
       0.064401925 -0.18153222 -0.10056288 -0.13338165
000020 4e 47 42 be aa 81 27 be 71 7e ab 3d 4d e1 c8 bd
       -0.18972513 -0.16358057 0.08373726 -0.09808598
000030 9b 0f 34 be 86 6c fe bc e5 43 35 be 87 74 43 be
       -0.17584078 -0.031057607 -0.17701681 -0.1908742
000040 f9 97 2c 3c dc 82 8b 3d 88 41 19 3c b6 2e 3e be
       0.01053428 0.06812069 0.009354003 -0.18572506
000050 78 e9 36 bd 83 51 62 3c 4e 7a 88 bd 7a 4b 3c bd
       -0.044656247 0.013813379 -0.06663953 -0.045970418
000060 64 14 17 bd 7a e4 a7 bc a5 b2 11 bc 2f 11 17 be
       -0.03688468 -0.020494688 -0.00889269 -0.14752649
000070 2c ae 02 be 35 78 a2 3d 7d 66 c6 3d 8d c1 35 bd
       -0.12761754 0.07933084 0.09687517 -0.044374038

conv_net.4.weight f4 [64, 32, 8]
000000 85 6e ed 3d 4f 42 48 3d 20 38 21 3e dc ae 43 3d
       0.115933456 0.04889136 0.15744066 0.04777418
000010 c6 0b d0 3d 4c 42 b8 bc 18 2a c8 3c 07 47 b1 bc
       0.101584956 -0.02249255 0.024434134 -0.021640314
000020 ba db e1 3c 59 22 0d 3d 00 1c ca bc 79 c1 8f bd
       0.027570594 0.034456585 -0.024671555 -0.07019324
000030 d0 61 88 3c 19 1e 43 bd 18 83 d6 bc 0d b1 d2 3d
       0.016648203 -0.047636125 -0.026185557 0.10287676
000040 4d cd 7f 3a e7 45 6e 3d 0c cf f6 bc af 7d cf bd
       0.000975807 0.058172133 -0.030128025 -0.10131394
000050 b4 a6 dd bd 21 b8 71 bc 72 5c be 3d 01 d4 61 3d
       -0.10822812 -0.014753372 0.09294976 0.055133823
000060 46 98 12 bd 1e 14 ea 3d 01 8f 14 3d ca ee 5a 3d
       -0.03578975 0.11429618 0.03626919 0.053450383
000070 86 03 69 3c 6d b0 d9 bc c7 70 48 3d e5 24 a1 3d
       0.014222031 -0.026573384 0.048935678 0.07868365
000080 33 2b 1e bd 32 4b 7c b9 2f 26 b3 bd 5a 6a 91 bc
       -0.038615417 -0.00024060605 -0.08747517 -0.017750908
000090 65 03 83 bd 58 44 5a bc 6e 8d bb bc e6 1c 25 3d
       -0.06397132 -0.0133219585 -0.022894587 0.040310763
0000a0 c1 a5 4b bd ef c7 0b bd 61 d9 33 bd 45 94 11 bd
       -0.049718622 -0.03412622 -0.04390848 -0.03554179
0000b0 27 55 f8 3c af 95 2e bd b6 8b b1 bb 6f 4f 54 3d
       0.030314041 -0.04262322 -0.005418266 0.051833566
0000c0 33 37 44 bd 40 c4 11 bc 21 f0 f0 bd 31 1c 11 be
       -0.047904205 -0.008896887 -0.11764551 -0.1417091
0000d0 10 5a c2 3c e2 a8 f2 bd 13 42 90 bd 3e c9 7f bd
       0.023724586 -0.11848618 -0.07043853 -0.06244778
0000e0 e5 64 09 bd d9 a4 32 bc c7 6d 17 3d 4e 6f 12 3c
       -0.033543486 -0.010903561 0.036969926 0.00893767
0000f0 65 fb d3 bd d5 8c c8 3a 77 66 b6 bd bd 28 2c bd
       -0.10350684 0.001530076 -0.08906262 -0.04203104
000100 bc 7d 96 ba 3e 05 09 bd c7 a5 20 3d eb d7 94 3d
       -0.0011481564 -0.033452265 0.039220598 0.072677456
000110 55 16 37 3d a8 6d 16 bd 34 9e 60 bd d7 36 b0 3d
       0.04469903 -0.03672567 -0.054838374 0.0860421
000120 4f ad 35 3d e4 03 73 3b 09 3c 91 3c 9b 2a 94 bd
       0.044354733 0.0037081176 0.017728822 -0.07234689
000130 fc 87 84 3c 6f 43 5a 3d 1f d1 b2 3c 7e 34 c2 bd
       0.016178124 0.053286966 0.021828232 -0.09482668
000140 09 b9 be 3d 64 10 5d 3d 5d 78 10 bd 44 af 70 bd
       0.093126364 0.05397071 -0.035271037 -0.058760896
000150 d9 2a 48 bc 27 02 14 3d ab 6c a3 3b da d9 8e 3c
       -0.012217247 0.036134865 0.0049873195 0.017437864
000160 25 ae 54 3d 4d a1 a2 3d 7e a4 ab bd 3f f1 46 3e
       0.05192389 0.07940922 -0.08380984 0.19427966
000170 f4 67 0e 3e 85 a1 3b 3c ff 0e 9f 3d 39 dc 3e bd
       0.13906842 0.0114520835 0.07766532 -0.04659674
000180 76 25 e4 3d a3 9f d1 3d e0 22 13 3e 2c 3a ac 3d
       0.111399576 0.102355264 0.14368773 0.08409533
000190 08 14 76 3d 62 5f 0b 3e 13 48 cd 3c 65 c6 16 3e
       0.060077697 0.13610604 0.025058782 0.14724119
0001a0 7f 0a 87 bc a6 44 97 3c f0 4e 9c bc 4d 5e 60 bd
       -0.016484497 0.018465351 -0.01908061 -0.054777432
0001b0 f3 e2 5c bd 12 c0 8d bd 0d d5 fa bc 77 d5 0c bd
       -0.053927373 -0.069214 -0.030619169 -0.034383263
0001c0 42 0e 80 bd 75 17 5b 3c 77 1a 56 bc 0d 5c 86 bd
       -0.062527195 0.013372292 -0.013067833 -0.06560526
0001d0 b4 be 24 3c 18 77 65 ba 6b b4 4b bd dd 9f b7 3c
       0.010055233 -0.0008753403 -0.049732607 0.022415096
0001e0 55 1a a7 bd 75 d7 34 bc f7 da 70 3e 0c ab 44 bd
       -0.08159319 -0.011037697 0.23521028 -0.048014686
0001f0 cf fb 85 3d 47 b2 f7 bd 3c 2b 0d bc c5 61 0d 3e
       0.06542169 -0.120945506 -0.008616265 0.13806827
000200 54 30 83 bd 8a 59 9d 3d 2d 1c 4e bd ea 34 62 bd
       -0.06405702 0.07683094 -0.05031984 -0.055226244
000210 a6 7c 6c 3c 40 55 b1 3d 40 c6 31 bd 06 95 25 bd
       0.014434015 0.08658838 -0.043401957 -0.040425323
000220 94 58 32 3c b4 84 89 bc a9 4a 18 bd d9 c3 38 bd
       0.0108853765 -0.01678691 -0.037180576 -0.04510865
000230 f4 20 25 bd 52 27 87 ba 65 98 10 3d 93 3e 04 3d
       -0.04031463 -0.0010311401 0.035301585 0.032286238
000240 be cc 4e bd 4b a9 83 3d e5 19 cd 3d 11 67 62 3e
       -0.050488226 0.064287744 0.100147046 0.22109629
000250 89 bd f4 3c dd 90 a5 bc ce e3 59 3b fb 6e 19 3e
       0.029875534 -0.020210678 0.0033247354 0.14983742
000260 9d d1 70 bd b1 bf 26 bc b8 65 4e bd 26 2f c5 bc
       -0.058793653 -0.010177539 -0.050389975 -0.024070334
000270 d1 f9 6c bd bd a9 ac bd f5 83 53 bd 66 c5 5f bc
       -0.05785543 -0.084308125 -0.051639516 -0.013657903
000280 b9 10 cd 3d e5 2c a2 3d 34 fd 34 3e c3 41 a3 3d
       0.10012955 0.07918719 0.17674714 0.079715274
000290 c4 57 0c 3d c9 d4 33 bd 09 e4 10 3e 61 f0 ff 3d
       0.034263387 -0.0439041 0.14149489 0.124970205
0002a0 4c bd 75 3d 45 4b b2 3d 76 64 a1 bd f9 65 e2 bd
       0.05999498 0.08705763 -0.078804895 -0.11054606
0002b0 93 33 74 3d 17 ec e1 bc 6e 61 1b bd c5 af 0c bd
       0.059619498 -0.027578397 -0.037934713 -0.034347314
0002c0 fe 19 94 3d bb 6c 83 3d ba af 91 bd a4 2e 95 bd
       0.0723152 0.06417223 -0.07113595 -0.072842866
0002d0 c8 09 6a bd 9e 84 b1 3b be 40 ff 3d db fa cd 3d
       -0.057138234 0.0054174205 0.124635205 0.100576125
0002e0 63 10 0b 3c 16 8b 03 bd 75 1e 23 3d ca 60 13 ba
       0.008487794 -0.032115065 0.039823968 -0.00056220277
0002f0 ea 10 e3 bd ae 38 6c 3c 98 37 97 bd 26 fa fb bb
       -0.110872105 0.01441781 -0.073836505 -0.007689732
000300 20 a8 9f bd 18 f7 43 3e 89 1b 68 bd 2c 45 e4 3c
       -0.07795739 0.19137228 -0.056666885 0.027865015
000310 eb 49 cd bd f1 ae 0d 3d ee 5c b8 bd 87 d1 04 3d
       -0.10023864 0.034590665 -0.090021 0.032426383
000320 a6 65 97 bd 8c c0 91 bd 16 07 11 bd ba 5f aa bd
       -0.07392435 -0.071168035 -0.03540715 -0.0831904
000330 78 77 3d bd 3f be 14 bd eb 26 2f 3d c6 41 10 3d
       -0.046256512 -0.036314245 0.042761724 0.035218976
000340 8f 5d 1f 3d 7c d3 38 3c bc 9d 00 3c e8 10 81 bd
       0.038907584 0.011280891 0.007850107 -0.06302053
000350 14 36 2a bd 53 5b b6 bd 0c 8d cc bd 15 0e 94 3c
       -0.04155548 -0.089041375 -0.0998784 0.018073121
000360 8c 5f 0a 3c 4b 8a 1a 3d 74 73 4c 3d 9e 51 08 3e
       0.008445632 0.037729543 0.049914792 0.13312384
000370 49 51 96 bc 80 14 05 3c e9 be 9c 3c eb d1 a7 3d
       -0.018349307 0.008122563 0.019134002 0.081943356
000380 b5 40 ba 3c 89 f3 77 3d 12 b7 e4 bc 68 3b 5d bc
       0.022735933 0.060534988 -0.027919326 -0.013502933
000390 dd 94 5a bd 5e ef 83 bd b1 29 8a bc 74 b9 fa 3b
       -0.053364623 -0.0644214 -0.016865583 0.0076515023
0003a0 6e 16 a8 bd 02 53 a1 bd b5 2c bc bd ba 42 2d bd
       -0.08207403 -0.078771606 -0.09188215 -0.042299964
0003b0 f3 00 a1 3d 46 30 30 3b 98 23 a8 3c 64 c5 c4 bc
       0.07861509 0.0026884242 0.020524785 -0.024019904
0003c0 c7 f4 85 bb 09 f4 38 bc c1 5e 6b 3b d5 80 8c 3c
       -0.0040880176 -0.011288651 0.0035914632 0.017151276
0003d0 d4 ad 42 3d 5a aa 2c 3d 3c 07 28 3d 34 53 25 bd
       0.047529057 0.042154647 0.041022524 -0.04036255
0003e0 49 7d f4 3c 96 4a 80 bd 32 e9 3c bd 0e 64 ea bd
       0.029844897 -0.06264226 -0.04612083 -0.11444865
0003f0 7e 6b bf bd 03 f4 74 bd a8 fd c0 bd 8b e6 9a bd
       -0.093466744 -0.05980302 -0.09423381 -0.07563504

conv_net.4.bias f4 [64]
000000 40 68 0c be 19 e7 6e bd 23 ed 5b 3c aa 53 c3 bd
       -0.13711643 -0.05832586 0.013423237 -0.09537442
000010 55 df cd 39 cc a1 29 bd dc 03 9c 3b 03 ab 84 3d
       0.00039267042 -0.041414067 0.0047612023 0.064779304
000020 ce 1a 7a bd 4f 18 6e 3b 2e 0a 2a bd 6a b5 86 3d
       -0.06106072 0.0036330407 -0.041513614 0.06577571
000030 ba e3 89 3c 79 48 f6 3b ac 24 82 bd 68 45 8d bd
       0.016832221 0.0075159636 -0.06354651 -0.06898004
000040 4d 4e ba bd bf e4 3e bd be 43 67 bd 49 5a d3 3d
       -0.09096966 -0.046604868 -0.05646109 0.10319955
000050 1e 6d a5 3d 30 51 ac bd 39 5d 7a bc f6 4c 0e bd
       0.08077453 -0.08413923 -0.015281015 -0.034741364
000060 be 75 c6 bd 0d 1e a5 bd 9b 4d 53 bb 4c 00 47 3d
       -0.09690426 -0.08062372 -0.0032242301 0.048584267
000070 b9 9f 47 3d 75 92 d4 bd 96 16 81 bc 59 5f 7c bd
       0.048736308 -0.10379497 -0.01575784 -0.061614368
000080 2c a3 6e 3d 8d 2a 92 bd d6 76 9b 3b 76 4d 41 3d
       0.05826108 -0.07137022 0.004744391 0.047193013
000090 ae 44 17 3d 66 ed 19 3d fe fc e9 3d 6b 25 bd bd
       0.036930732 0.037579916 0.114252076 -0.092356525
0000a0 41 87 fb 3c fb 74 4e bd 90 e6 3c bd 14 da 9a bd
       0.030704143 -0.05040453 -0.04611832 -0.07561126
0000b0 0d a5 75 3d 7a 66 93 3c dd c4 e0 bd 7d 3f 95 bd
       0.059971858 0.0179932 -0.10975049 -0.072875
0000c0 c2 35 6c 3d 07 d4 b7 bc 8c 65 1b 3d c2 4c cf ba
       0.057668455 -0.02243997 0.03793864 -0.0015815722
0000d0 dd a4 60 3d 42 22 a6 bd 0f d0 82 3d 25 84 96 bc
       0.054844726 -0.08112003 0.0638734 -0.018373558
0000e0 da 13 cd bc 0c 95 87 bd 70 da 13 be 3e a4 c4 bc
       -0.02503388 -0.06620225 -0.14438796 -0.024004098
0000f0 5e 18 51 bd bd 41 c2 bd 5a ce a8 bd 13 b3 43 3d
       -0.05104863 -0.09485195 -0.082424834 0.0477782

conv_net.9.weight f4 [64, 640]
000000 be 00 64 3e 35 d8 9d 3d 00 d9 a4 3d ce ca 3d 3c
       0.22265908 0.07707254 0.08049202 0.011583997
000010 3b 68 cd 3d 11 59 11 3e b1 4a 39 3d 6d 7c 4b 3c
       0.10029646 0.14194132 0.045237247 0.012419802
000020 27 ce 86 3d 7a bd 8a 3e d5 bd 98 3d 58 34 9b 3d
       0.06582289 0.27097684 0.074580826 0.07578343
000030 f1 34 53 3e a1 b3 50 3d e9 06 89 3d da 14 95 3d
       0.20625664 0.050952557 0.06690771 0.07279368
000040 7c 71 19 3e cc 16 3a 3e 7f e4 cd 3d 12 86 b8 3d
       0.14984697 0.18172759 0.10053348 0.09009947
000050 45 f5 f8 3b 79 2e ed 3d ea 2f c8 3c 0e 89 f3 3d
       0.007597598 0.115811296 0.02443691 0.118913755
000060 92 fa de 3d b1 ec 31 3e 16 d6 dd 3d 13 36 35 3e
       0.10887636 0.17375447 0.10831849 0.17696409
000070 e9 40 18 3e f7 cf ed 3d da af 01 3e cc 1d 71 3d
       0.14868511 0.11611932 0.12664738 0.058866307
000080 bf e3 21 3d d4 98 54 3d 1f f6 3c 3e d8 6d 1c 3e
       0.039523836 0.05190356 0.18453263 0.15276277
000090 87 8f 5f 3d fa 07 00 3e ba 12 d6 3d d0 0a 98 3d
       0.054580238 0.12503043 0.104527906 0.07423937
0000a0 a8 33 1a 3e b1 a4 dc 3d 9c 98 aa 3d 02 83 8b 3c
       0.15058768 0.107736 0.08329889 0.017030243
0000b0 f5 85 90 3d 45 8a 7d 3d 11 69 29 bd f8 6e b8 3d
       0.070568 0.061899442 -0.041359965 0.090055406
0000c0 6b 6a 42 3b b3 32 e8 3d 82 2f b5 bc 21 29 25 bd
       0.002966548 0.11337795 -0.02211738 -0.040322427
0000d0 3c f0 78 bd 3a c9 67 bd 7a 26 3e bd 0b d6 39 bd
       -0.06077598 -0.05658839 -0.046423413 -0.045370143
0000e0 52 dd 83 bd 0c f7 0c bd 30 cc e8 3a 7e 94 c4 3c
       -0.06438698 -0.03441529 0.0017761048 0.023996588
0000f0 e2 04 46 3d d6 56 41 3d ca 07 eb bb ef 64 42 3d
       0.0483445 0.047201954 -0.0071725594 0.04745954
000100 20 5c c7 3d b0 57 86 3d 4f 95 de 3c 23 b2 20 3d
       0.09734368 0.06559694 0.027170805 0.039232384
000110 8c d6 49 3d 00 f7 87 3d 12 3c 4c bd 2c 46 97 bd
       0.049276873 0.066389084 -0.049861975 -0.07386431
000120 7b d7 d7 bc 13 83 a3 bd 85 73 fe bc 0d 9d 87 bd
       -0.026347866 -0.07983985 -0.031060943 -0.06621752
000130 17 3c 37 bc 7c ef 21 bd af 23 1a bd d9 ce df bb
       -0.01118376 -0.03953503 -0.037631687 -0.006830078
000140 26 67 95 3d 28 7f 86 bb 72 b8 26 bc 4c 87 26 3d
       0.07295065 -0.0041045137 -0.010175811 0.040656373
000150 37 e8 0b bd b4 9d a2 bb 17 5c ba 3c 36 ff 58 3d
       -0.034157004 -0.0049626473 0.02274899 0.052977763
000160 ba 26 e7 3c 6f 8a 18 3d 0b f5 23 3e a1 db 4d 3e
       0.028216708 0.037241396 0.16011445 0.20103313
000170 46 e9 62 3e bf 83 c6 3e 72 34 ae 3e fb fa 99 3e
       0.22159299 0.3877239 0.34024388 0.30074295
000180 42 da a7 3e 05 bc 9f 3e 9e 6d 7a 3e c7 30 95 3e
       0.32783705 0.31198135 0.24455878 0.29138777
000190 b6 fe 01 3e 53 18 e3 3d 4b 33 bb 3d 21 db d6 3b
       0.12694821 0.11088624 0.09140643 0.006556884
0001a0 1a a8 5e 3d fb 11 aa 3d 63 e4 1f 3d f8 13 5d 3d
       0.054359533 0.08304211 0.039036166 0.05397412
0001b0 c0 40 ba bc 83 b8 0e 3d e5 4a 90 3d 91 e1 cc bc
       -0.022735953 0.034843933 0.07045535 -0.025009902
0001c0 df 36 86 3c 8a 63 ac 3c a2 6e aa 3d 98 5f 36 bd
       0.016383586 0.021043558 0.08321883 -0.04452476
0001d0 61 93 4c bc f9 ad 89 3c e5 58 42 bd 82 96 bc 3c
       -0.01248631 0.01680659 -0.047448058 0.023020986
0001e0 f1 62 00 be 3c 6e 86 bd 4c 96 2f bd e6 f1 1c be
       -0.12537743 -0.06563994 -0.042867944 -0.15326652
0001f0 85 9b 99 bd f7 df 90 bd e2 97 55 bd e6 c9 0b be
       -0.07500366 -0.07073968 -0.0521468 -0.13651237
000200 5d 12 3b bd 0b 28 59 bd da 6a 20 3d 45 b3 e5 3c
       -0.04567181 -0.053016704 0.0391644 0.028039584
000210 eb 9a 7f bd 04 7c 0a 3b 17 a9 9b 3c 1a 70 53 bc
       -0.0624036 0.0021131048 0.019001527 -0.012905145
000220 76 7b e0 3a 09 06 b4 bc 93 08 9c bc 90 f8 20 bd
       0.0017126638 -0.021975534 -0.019047057 -0.039299548
000230 5e a2 34 3e 4f bc df 3d cf d5 7d 3d d9 a3 a2 3d
       0.17640063 0.10924589 0.061971482 0.07941408
000240 d1 9d d0 3d e8 52 f5 3d 63 3a 15 3e 4a 09 da 3d
       0.10186351 0.11978704 0.14573054 0.10646303
000250 81 52 90 3d 5a 32 21 3e 44 93 4c 3e 55 51 ef 3c
       0.07046986 0.15741864 0.19978052 0.029213587
000260 88 7d 19 3d ac ea 89 3b 3c 64 9f 3d 14 1a 90 3d
       0.03747323 0.0042088833 0.0778279 0.07036224
000270 ca 43 81 3d ab f6 0e 3d ff d1 66 bc 34 c5 35 3e
       0.06311758 0.03490321 -0.014088153 0.17751008
000280 8a d7 39 3e ed b2 eb 3d cd fa 98 3d b1 f2 a6 3d
       0.18148628 0.11508737 0.074697115 0.081517585
000290 a9 fd 21 3e 22 4e 12 bd 26 7c 59 bc 23 fa 6f 3b
       0.1581942 -0.035719045 -0.013274228 0.00366176
0002a0 bb d6 9f 3d 1f 38 26 3c 47 ff 2d 3e f1 a7 37 3e
       0.078046285 0.010145216 0.16991912 0.17935158
0002b0 a2 e9 fc 3d 66 8d 97 3d 63 3b f1 3d 43 b9 81 3e
       0.123492494 0.074000165 0.11778905 0.25336656
0002c0 43 cb b4 3d 0e 30 30 3e 28 6f 31 3e 34 d9 2b 3e
       0.088278316 0.17205831 0.17327559 0.16782075
0002d0 e0 50 09 3d 65 1f 0c be 9c 2e 17 bd 31 e3 0f 3d
       0.033524394 -0.13683851 -0.036909685 0.035128776
0002e0 0d f1 ba bc 37 f5 66 bd 7b 82 d7 3c 90 08 e4 3b
       -0.02282002 -0.0563862 0.026307335 0.0069590285
0002f0 e4 b2 0c bd 4b 69 72 bc 96 d8 f6 bd c5 32 9b bd
       -0.03435029 -0.014795612 -0.12053029 -0.07578043
000300 5b ee dc bd 9d 3d cd bd 26 ee e1 bd 96 38 e9 bd
       -0.1078765 -0.100215174 -0.11031751 -0.11387746
000310 a3 31 1e be ed a3 a7 bd 53 aa 11 bd 97 74 da bd
       -0.15448622 -0.08185563 -0.035562824 -0.10666769
000320 eb 5b 19 3e e4 7e b5 3c 89 e8 9a 3d ae ee 81 3d
       0.1497647 0.022155233 0.07563884 0.06344353
000330 6f 0b b5 3d 33 d2 be 3b 5e 18 67 3b 60 8e d7 ba
       0.088400714 0.0058233975 0.0035262327 -0.0016445629
000340 03 6d 96 3d 52 e0 f3 3d 1b 51 11 3e c7 3a 86 3d
       0.07345011 0.1190802 0.14191096 0.0655418
000350 c1 3c 8c 3d ec 53 91 bc 0f 20 97 3d 33 28 0b 3e
       0.068475254 -0.017740212 0.073791616 0.13589554
000360 da fb 91 3d a0 e7 9c 3d d0 2a 06 3e 95 58 a1 3c
       0.07128115 0.076613665 0.13102269 0.01969556
000370 dc c5 8b 3c 20 50 2f 3d 08 d3 25 3e 09 df 0a 3d
       0.01706212 0.042801023 0.16193783 0.03390411
000380 e2 87 a8 3c 08 2c ee 3d b0 75 3c 3e 06 bf 50 3e
       0.020572606 0.11629492 0.18404269 0.2038537
000390 ba ed 2a 3e 7e 1e 2f 3e fe a3 5a 3d ab 20 a1 3c
       0.16692248 0.17101476 0.05337905 0.019668898
0003a0 4c 50 0d bd 93 57 4b 3d a3 cc 8c 3d 19 e4 df 3c
       -0.034500405 0.049644064 0.06874969 0.027330445
0003b0 c5 4d 11 bc 48 3c 03 3e 46 c6 3a bd 81 b8 43 3d
       -0.008868639 0.12815964 -0.045599245 0.04778338
0003c0 ce ec ba bc 42 f3 17 bc 55 42 ff 3b fa df 50 bd
       -0.022817995 -0.009274306 0.00778989 -0.05099485
0003d0 83 50 20 3d 9a 8c da 3c 0c 16 11 3c c2 0c 57 3d
       0.039139282 0.026678372 0.008855354 0.0525024
0003e0 36 cf a3 b9 ad a6 ca 3d 2e cd 22 3d 4c 30 52 3d
       -0.00031244167 0.09895072 0.039746456 0.05131559
0003f0 e5 7e c4 3c 0f e0 3d 3c 61 bc 03 3e e4 60 09 3e
       0.02398629 0.011589064 0.1286483 0.13415867

conv_net.9.bias f4 [64]
000000 48 f4 21 bd a6 18 b8 3b 88 0a 27 bd 80 0c f4 3c
       -0.039539605 0.0056181727 -0.040781528 0.029791117
000010 fc 27 2f bd 66 a5 dc 3b 48 ab e2 bc e0 c3 0c 3d
       -0.04276274 0.006733584 -0.027669564 0.03436649
000020 52 84 bc 3c 5c f8 be bc 7e 5e cf bc 81 a9 c7 3c
       0.023012314 -0.023311786 -0.025313612 0.024372818
000030 2a e0 c9 bc 4f e8 26 3c b8 7a 0c bd 3f 00 e7 3c
       -0.024643023 0.010187223 -0.03429672 0.02819836
000040 c8 48 77 bd 48 8c ba bb cc f3 82 3a 0b 8c 10 bc
       -0.060372144 -0.0056929924 0.000999087 -0.008822451
000050 ea b5 58 bc 3b 3c 7f bc 59 46 4e bc 2f ee fb bc
       -0.013226965 -0.015578325 -0.012590014 -0.030753223
000060 aa 96 29 bd f5 9b 0f 3d 35 d5 bd bc ff 1c ac 3c
       -0.04140345 0.03506084 -0.023172954 0.02100992
000070 54 1b 4a bd bc e9 1a bc f9 86 c5 bc 2c 82 e3 3c
       -0.04934247 -0.009455141 -0.024112212 0.027772032
000080 9f 4a 1f 3b 1a 87 0e bc 91 9b ab bc 5d d3 a8 bc
       0.0024305952 -0.008699203 -0.020948203 -0.020608598
000090 96 3b b4 3b 0d 2e 2f bd 33 3d 34 bc 07 88 1d 3d
       0.0055002673 -0.042768527 -0.011000919 0.038459804
0000a0 98 9c 2f bd ed 73 83 3d e9 37 0d bd e9 a3 c2 bc
       -0.04287395 0.064185955 -0.03447715 -0.0237598
0000b0 67 67 d2 bc ef 08 04 3c 89 6c 65 3d 64 68 a5 3d
       -0.025684072 0.008058771 0.05601171 0.080765516
0000c0 74 c2 1e bd ed 8f 98 39 3c 64 67 3c e5 9b 33 bd
       -0.038759664 0.00029098932 0.014123019 -0.043849844
0000d0 45 9c d7 3c 59 a7 6e bc 80 e7 03 bd 76 89 d9 bc
       0.026319632 -0.014566266 -0.032203197 -0.026554804
0000e0 0b 16 08 bd 56 3c 39 bc f0 7d 24 bd 15 22 0f bc
       -0.033224147 -0.011305889 -0.040159166 -0.008736153
0000f0 e4 e2 9d 3c 91 6b c5 bc d2 7c 1a 3d a3 4a 62 3b
       0.019273229 -0.024099143 0.037716694 0.003452935

conv_net.11.weight f4 [4, 64]
000000 d8 ea f6 3b c1 93 01 bd 43 08 50 bd 80 14 22 bd
       0.00753532 -0.03163505 -0.05078913 -0.03957033
000010 b4 31 c9 3d 75 73 d0 3d 7c 41 8a bd ca bb 65 bb
       0.09823933 0.10178272 -0.067507714 -0.0035054558
000020 37 e6 cb bd 4c 6e d8 3d dc 53 c6 3d a7 19 bc b9
       -0.09956019 0.105679125 0.09683964 -0.00035877267
000030 d1 ec 89 3c 21 10 cb bd 00 65 2f 3d 49 6e de 3d
       0.016836556 -0.09915186 0.04282093 0.10860879
000040 22 36 42 3d 68 2a a9 bd 84 21 b9 bd a8 87 d0 bd
       0.047414906 -0.082600415 -0.09039596 -0.101821244
000050 25 e3 c5 bd 53 9c 63 bd 23 fc 94 3d e1 4d 11 3c
       -0.09662465 -0.055569004 0.07274654 0.008868665
000060 a3 9d 92 bd ff b3 f2 3d f5 ef 19 bd e0 43 94 3d
       -0.07158973 0.11850738 -0.037582356 0.07239509
000070 c3 c2 b2 3d c8 31 70 3c 06 a5 d0 bc 14 c6 d4 3c
       0.08728554 0.014660306 -0.025469314 0.025973357
000080 1c 34 6f bd 55 bd 11 3e a9 1a a2 bd b5 63 41 bd
       -0.058399305 0.1423238 -0.07915241 -0.04721423
000090 1b 67 58 bd e0 52 4f bc df 81 e9 bd a9 f9 ee bd
       -0.052832704 -0.012654036 -0.11401724 -0.11668713
0000a0 a6 cf 64 3d 3e 71 35 bd 98 77 3d bd 3e 74 87 bd
       0.05586209 -0.04429745 -0.04625663 -0.06613968
0000b0 b6 dc 86 bd 60 89 08 3b d8 8b 8c bd c7 06 86 bd
       -0.06585066 0.0020833835 -0.068626106 -0.065442614
0000c0 6d 62 2c 3d c5 b7 9a bd f4 68 1b bd ae e4 e2 bc
       0.042086054 -0.075545825 -0.037941888 -0.027696934
0000d0 23 12 cc bd b4 60 2e 3d 3d 92 df 3d 7f 8d d2 3c
       -0.09964397 0.042572692 0.109165646 0.025702236
0000e0 3d 8e 8d bd ea 56 31 bd 38 2e 91 bc 56 a2 c8 3d
       -0.069118954 -0.04329578 -0.017722234 0.09796588
0000f0 06 d8 1f b7 35 2e 77 3d e2 0a 0b bc e9 ad a0 bc
       -9.527435e-06 0.0603468 -0.008486481 -0.019614177
000100 f1 91 a4 3d e8 a0 01 3e 75 1c 2b bd c8 33 71 be
       0.080356486 0.12659037 -0.041775186 -0.23554909
000110 d0 13 b9 3c b7 c0 09 3e 36 ae 08 3d ad e2 9f 3d
       0.022592455 0.13452421 0.033369265 0.07806907
000120 d0 3a 04 be ab d8 8e bc 75 ab c4 bc d9 b2 6f 3d
       -0.1291306 -0.0174373 -0.024007538 0.05852017
000130 b1 2b ed 3d 0d 8e 7b bd 3a 46 85 3d 3c dc 4f be
       0.11580599 -0.061414767 0.06507535 -0.20298856
000140 57 79 80 be ad 0f ca 38 da 4b af bc d8 c6 dc bd
       -0.25092575 9.6350304e-05 -0.021398474 -0.10780114
000150 57 78 b9 3b 15 1b d5 bd 1f 7a 32 be f5 e3 c4 3d
       0.0056600976 -0.10405556 -0.17429398 0.09613792
000160 ab d6 6e bc 98 0b 0e be 3b 23 9e 3d db 99 01 be
       -0.014577548 -0.1387161 0.077215634 -0.12656347
000170 5a 78 eb 3d 9e 54 66 be c2 32 e8 3d 46 34 11 be
       0.114975646 -0.22493216 0.11337806 -0.14180097
000180 06 a6 b8 bd b9 46 62 bd d9 52 ec bc 63 ff 6e 3a
       -0.090160415 -0.055243228 -0.028848099 0.0009117035
000190 37 9e a4 3d 2e d1 b8 3d 3e 6e 80 bd 2c 6a de bd
       0.080379896 0.09024273 -0.06271027 -0.108600944
0001a0 8e 7e 55 3d 92 92 63 be 6e 3c ba 3c 30 2f 9b bd
       0.052122645 -0.22223881 0.022733893 -0.0757736
0001b0 a0 d8 b2 bd 9e a7 a0 be 68 f7 91 be 47 f1 29 be
       -0.08732724 -0.31377882 -0.28509068 -0.16595946
0001c0 a4 dc 18 3e 2e 82 f6 3c b3 93 70 3b bd b3 b4 3d
       0.14927918 0.030091371 0.003670913 0.08823345
0001d0 83 f8 d1 3d f7 30 95 be 43 66 8e 3d c5 e1 25 3e
       0.10252478 -0.2913892 0.069530986 0.16199405
0001e0 f5 08 4c 3d 7b 54 40 3d 63 37 1b be 06 c2 ae bc
       0.04981323 0.046955567 -0.15157847 -0.021332752
0001f0 4c 2b 70 be b1 87 6e bd ee cc f6 3d 9d ec 55 bd
       -0.23454016 -0.058234874 0.12050806 -0.052227605
000200 a3 5a fc 3d 47 74 cf be b7 48 d0 bb 63 50 97 3d
       0.12321975 -0.405184 -0.0063563245 0.073883794
000210 16 c3 ad 3d 7d 92 9e bd 61 6a c5 bd 90 b3 74 3e
       0.08484475 -0.07742784 -0.09639431 0.23896623
000220 d2 b1 5e bd 28 15 fd bc 03 5a 4e bd 93 8c 46 bd
       -0.0543688 -0.030893877 -0.05037881 -0.048473906
000230 aa 95 10 3d 45 0c d0 bc 5a 87 f2 3d fa 31 cc bd
       0.03529898 -0.025396476 0.118422225 -0.0997047
000240 18 00 a3 3d ec e9 7b bd b9 d9 4b 3d b7 55 19 bd
       0.07959002 -0.061502382 0.049768183 -0.03743526
000250 7f a9 04 be b4 67 86 bc 2d 7f 1c be 78 00 30 3d
       -0.12955283 -0.016406871 -0.15282889 0.042969197
000260 82 7d 52 bd 98 00 19 be fe 16 20 3d 63 e8 f2 bd
       -0.051389225 -0.14941633 0.039084427 -0.118607305
000270 8d f5 2c be d0 93 a0 3c 06 35 03 be b4 37 63 3e
       -0.16890545 0.019601732 -0.12813196 0.22189218
000280 6b a9 95 3d 87 57 4c bc 28 ef 07 bd 0e 4d 19 3c
       0.073077045 -0.01247204 -0.03318706 0.00935675
000290 c3 0d 18 bd b9 e9 48 bd 04 a0 9d 3b 13 b9 b6 3d
       -0.0371225 -0.04905102 0.004810335 0.08922019
0002a0 a9 b1 2b be 55 c8 f0 bd 28 dd ef 3d 87 65 ad bd
       -0.1676699 -0.1175696 0.11712104 -0.084666304
0002b0 18 5b 7b 3d 0f 0b b7 3d 21 d7 ea 3c 9d ee 71 be
       0.06136617 0.08937656 0.028667035 -0.2362618
0002c0 fb db cb bd 5d db 5b be 99 b4 ec bd b7 e3 74 bd
       -0.09954067 -0.21470399 -0.11557884 -0.05978748
0002d0 21 9c b1 3d e0 ff af 3d 50 45 ca bd d3 5e c7 be
       0.08672357 0.08593726 -0.098765016 -0.38939533
0002e0 ac 82 ae 3d 63 27 f1 bc cf ec 0f be bb db d4 bd
       0.085210174 -0.029437726 -0.14055179 -0.10393473
0002f0 99 00 56 bd cd 95 1c be b6 bf 78 bd ad 2e 30 3e
       -0.052246664 -0.1529152 -0.060729705 0.17205305
000300 40 01 8b be 79 35 8f be c3 f5 91 bd d5 96 0e 3d
       -0.2714939 -0.27970484 -0.071269535 0.034811813
000310 a6 bf 22 be 21 07 1b be 72 b1 83 bd 24 f7 9e bd
       -0.1589342 -0.15139438 -0.064303294 -0.07761982
000320 aa 2d df 3d ea fe 3e 3d c4 88 63 bd 22 4c 07 3d
       0.108973816 0.046629824 -0.05555035 0.03303159
000330 e7 f2 55 bd 74 cc f9 bc 7a df 2a 3d 26 b6 fa 3d
       -0.052233603 -0.030492999 0.04171703 0.12241773
000340 62 5b a7 bc 64 c7 01 be 93 9d 7a be 9b 0e 76 bd
       -0.020429317 -0.12673718 -0.24474172 -0.060072523
000350 b6 8f 01 be 8f cf 8b bd ae e1 1c 3e 8a 05 4e 3d
       -0.12652478 -0.06826698 0.15320465 0.05029825
000360 03 06 62 3d b9 37 06 3e 0b ea a1 3c 88 91 a1 3d
       0.055181514 0.13107194 0.01976492 0.07889086
000370 85 ae bb bd 23 f6 14 be 89 aa ef bc 85 10 07 3d
       -0.09164146 -0.14547019 -0.029256122 0.03297474
000380 d5 7a 6b 3d e7 27 27 bd ef f5 b4 bd 7d 0e ed 3d
       0.05749019 -0.04080954 -0.088359706 0.11575029
000390 9f 01 07 3d 44 68 9f be 7f 06 53 bc 56 18 3e 3c
       0.03296053 -0.31134236 -0.012879967 0.011602482
0003a0 d0 d2 6f be be d0 ff 3d 74 76 f5 bd 85 11 d4 3d
       -0.23420262 0.12490986 -0.11985484 0.10354904
0003b0 c3 6e c2 bd 97 d0 8c 3d 85 7f ca 3c ed f4 22 3e
       -0.09493782 0.06875723 0.02471901 0.15913744
0003c0 db 79 53 be 2b 2a 24 be 9d cf 4d 3d 4a 53 b3 3d
       -0.20651953 -0.16031711 0.050246824 0.087561205
0003d0 40 eb 7e 3d b9 27 19 3e d2 4c 3a be 22 12 cf ba
       0.06223607 0.14956559 -0.18193367 -0.0015798251
0003e0 73 c0 2b ba 9d ac b6 3d 85 a7 3d bd 82 37 b6 bd
       -0.00065518095 0.08919642 -0.046302337 -0.08897306
0003f0 d8 a9 2c 3e a8 1c b6 3d 16 e1 60 be 2d 0e f8 bd
       0.16861665 0.088921845 -0.21960863 -0.12112079

conv_net.11.bias f4 [4]
000000 00 0e a0 bd 79 04 41 bd fe 6d 82 bd 11 ab 00 3d
       -0.0781517 -0.047123406 -0.063686356 0.03141314
